mytb3_ws/src/mytb3_nav/models/mlp_model.pth (torch, 25180 bytes, 6 tensors)

hidden1.weight f4 [100, 4]
-0.55060655 0.36056545 0.4279019 0.43736678 -0.11180019 0.13212338 0.69243133 0.261907
0.66550153 -0.17281869 0.015027373 -0.3008753 0.4035826 0.09170623 0.03416155 0.13037193
-0.5747556 0.16822203 -0.025770156 0.18465781 0.504919 0.17346677 -0.41943496 -0.5916636
0.7325331 0.19004963 0.41488063 -0.5360743 0.46215582 -0.42937204 -0.4867993 -0.014888914
0.31457496 -0.17766576 -0.6429682 -0.28185242 0.3399029 -0.22936003 -0.027815944 0.12660353
-0.48473594 -0.15266472 -0.5879378 0.42766666 -0.29377753 -0.2847561 0.08802377 -0.25819662
0.07202399 -0.20300218 -0.32992807 0.35346714 -0.47751468 0.3836421 -0.32548496 -0.018895669
0.15525958 0.45694447 -0.69180447 -0.5682849 -0.37896433 -0.33141145 -0.44702458 -0.20859347
-0.31451595 0.49609652 0.4620235 0.2828505 -0.37913117 0.48975417 0.20402932 0.39742425
0.4259968 -0.3285773 -0.58380514 0.03142322 0.46873474 -0.287547 0.53216124 0.14220846
0.4895366 0.2659998 -0.3127152 0.06735906 -0.75034404 0.36418575 -0.58658403 -0.6004614
0.5947654 -0.52964187 0.29488117 -0.01548189 0.42696494 -0.28242514 -0.17309833 -0.70167404
0.45204213 0.49507782 0.18722695 -0.025722641 0.46611312 -0.5221877 -0.15336898 -0.23240109
0.1121311 0.18846725 -0.03901809 0.30130824 0.504006 -0.13866962 0.35396633 0.45869172
-0.21452056 -0.3244943 0.15984671 0.44695517 0.4522418 -0.475483 0.43661225 -0.39021283
0.5546555 -0.29693243 0.23083666 0.27828518 -0.5111273 0.6697492 -0.36938483 0.46744764
0.26130193 -0.06495831 -0.3433993 0.18093975 0.30784625 0.13843587 -0.4430059 -0.5765684
-0.12815844 0.01685061 0.34632614 0.06525106 -0.23118013 0.08684894 -0.340228 0.2570867
-0.26501006 -0.3770758 -0.09991384 -0.23564456 0.19276842 0.40762 0.33315107 0.47287494
-0.36830902 -0.4910184 0.56534606 -0.20005476 0.29212523 -0.39338088 0.42389074 0.25435236
-0.20880997 -0.11962876 -0.7001612 0.16943412 -0.69532275 -0.32584614 -0.4102907 -0.025153503
-0.2531857 0.21487287 -0.1093521 -0.45085913 -0.5720462 -0.022765342 0.5310945 -0.4312598
-0.5231301 0.09769549 -0.6827701 -0.117868274 -0.54350996 0.13886818 0.019698387 0.2638544
-0.49972802 0.21917944 -0.15081532 -0.5950994 0.27797255 -0.018741326 -0.42958355 0.17165
0.6397968 -0.17099209 0.6795641 0.45926443 -0.16482663 0.37110728 0.02590296 0.04327561
-0.24546678 0.425663 -0.2668388 0.15373014 -0.22901799 -0.46506643 -0.6075803 0.11959787
0.24744172 -0.41411945 0.500288 -0.32762784 0.20969363 -0.43630084 0.21520816 0.040492848
-0.4066902 -0.61753905 0.6094174 -0.33604613 0.35681596 -0.45455766 -0.34591606 -0.2561978
0.25221413 -0.13521144 0.008550167 0.70818895 -0.12900756 0.09449188 -0.40819347 -0.07013668
-0.08304483 -0.22620293 0.24482809 0.61397266 0.32135832 -0.42755276 -0.08852397 -0.5711129
-0.18368326 -0.13307133 -0.004335081 0.35451555 0.2849535 0.04468227 -0.4352684 -0.32672927
-0.010073114 0.30827582 -0.7892064 0.11766863 -0.052053344 -0.2525589 0.06494286 -0.6768958
00000000: 8df4 0cbf 099c b83e f515 db3e 8aee df3e
00000010: 7ff7 e4bd 5a4b 073e 2e43 313f ad18 863e
00000020: 4f5e 2a3f 62f7 30be 5f35 763c 540c 9abe
00000030: 61a2 ce3e 7ad0 bb3d fbec 0b3d 3880 053e
00000040: 2f23 13bf 6542 2c3e ef1b d3bc f016 3d3e
00000050: 5f42 013f 46a1 313e 2ec0 d6be 4477 17bf
00000060: 4a87 3b3f 5f9c 423e 3c6b d43e 2a3c 09bf
00000070: b09f ec3e a7d6 dbbe c23d f9be a2f0 73bc
00000080: f80f a13e 03ee 35be 9099 24bf f64e 90be
00000090: c107 ae3e 5bdd 6abe 43de e3bc 5ba4 013e
000000a0: 4f2f f8be 2454 1cbe 1783 16bf 20f7 da3e
000000b0: 026a 96be 8dcb 91be ce45 b43d 5932 84be
000000c0: 5081 933d cedf 4fbe 55ec a8be a5f9 b43e
000000d0: ce7c f4be bd6c c43e f7a5 a6be 17cb 9abc
000000e0: 5efc 1e3e a0f4 e93e 191a 31bf 1f7b 11bf
000000f0: 9d07 c2be c3ae a9be 68e0 e4be 8799 55be
00000100: 3c08 a1be 5d00 fe3e 588e ec3e c8d1 903e
00000110: 7b1d c2be 0fc1 fa3e 10ed 503e 317b cb3e
00000120: 411c da3e 493b a8be 4174 15bf a2b5 003d
00000130: 00fe ef3e 5c39 93be b83b 083f 189f 113e
00000140: 8ba4 fa3e 2031 883e 351c a0be 8cf3 893d
00000150: 8c16 40bf 8e76 ba3e 5f2a 16bf d7b7 19bf
00000160: 8c42 183f 9c96 07bf aafa 963e c1a7 7dbc
00000170: 269b da3e 079a 90be b040 31be e9a0 33bf
00000180: 1172 e73e d77a fd3e 6cb8 3f3e 4ab8 d2bc
00000190: 61a6 ee3e 18ae 05bf c20c 1dbe 8dfa 6dbe
000001a0: fda4 e53d 8ffd 403e 6fd1 1fbd 1345 9a3e
000001b0: 8a06 013f 69ff 0dbe 133b b53e a4d9 ea3e
000001c0: 47ab 5bbe 1e24 a6be dbae 233e 4fd7 e43e
000001d0: 3d8c e73e 8272 f3be a48b df3e fac9 c7be
000001e0: e7fd 0d3f 8707 98be 7260 6c3e 657b 8e3e
000001f0: 3dd9 02bf af74 2b3f 0220 bdbe 4c55 ef3e
00000200: 5ec9 853e dd08 85bd 08d2 afbe 4548 393e
00000210: 069e 9d3e 22c2 0d3e abd1 e2be fd99 13bf
00000220: f73b 03be 4a0a 8a3c a951 b13e 59a2 853d
00000230: 7cba 6cbe dbdd b13d 5d32 aebe dea0 833e
00000240: 66af 87be 1410 c1be a19f ccbd cf4c 71be
00000250: 1665 453e 92b3 d03e c792 aa3e aa1c f23e
00000260: 0093 bcbe c466 fbbe 85ba 103f 28db 4cbe
00000270: 7091 953e 3869 c9be 3508 d93e 793a 823e
00000280: 48d2 55be ecff f4bd c43d 33bf 2380 2d3e
00000290: ac00 32bf 4ed5 a6be 9f11 d2be b80e cebc
000002a0: 8ea1 81be a207 5c3e fef3 dfbd 02d7 e6be
000002b0: 9f71 12bf 627e babc cff5 073f 16ce dcbe
000002c0: dbeb 05bf 9314 c83d 05ca 2ebf ec64 f1bd
000002d0: 7823 0bbf 7633 0e3e 835e a13c ed17 873e
000002e0: 5adc ffbe 9370 603e 556f 1abe 6f58 18bf
000002f0: 6b52 8e3e 6987 99bc 60f2 dbbe 05c5 2f3e
00000300: b9c9 233f 8d18 2fbe eaf7 2d3f b524 eb3e
00000310: 50c8 28be c601 be3e 7232 d43c c441 313d
00000320: a55b 7bbe 80f0 d93e 189f 88be 6f6b 1d3e
00000330: b183 6abe 301d eebe 628a 1bbf baef f43d
00000340: 5d61 7d3e 7707 d4be e012 003f d6be a7be
00000350: edb9 563e d362 dfbe 875f 5c3e d4db 253d
00000360: b339 d0be 0a17 1ebf c702 1c3f 3d0e acbe
00000370: 95b0 b63e c8bb e8be e91b b1be 5c2c 83be
00000380: 3622 813e de74 0abe 0016 0c3c df4b 353f
00000390: 8f1a 04be f584 c13d bcfe d0be d2a3 8fbd
000003a0: 6813 aabd bea1 67be 37b4 7a3e 502d 1d3f
000003b0: 1489 a43e 32e8 dabe 0e4c b5bd 7434 12bf
000003c0: 7717 3cbe da43 08be 4c0d 8ebb 1083 b53e
000003d0: 6de5 913e c204 373d 80db debe 0f49 a7be
000003e0: b409 25bc 54d6 9d3e 6e09 4abf 40fc f03d
000003f0: e335 55bd 664f 81be c300 853d 0b49 2dbf

hidden1.bias f4 [100]
0.373101 0.07331421 -0.19645883 0.43418115 -0.032057837 0.29863858 0.14369312 -0.22783796
-0.32460022 -0.21573225 0.37173423 -0.18975924 0.58572805 0.29902524 0.20949991 -0.12907593
-0.069300175 -0.3741569 0.14678627 -0.365595 0.5068013 -0.14289522 -0.2622745 -0.05058558
-0.37962705 -0.4057056 -0.58136207 0.18717368 0.1972451 -0.37730625 -0.48645854 -0.36232257
-0.36647725 0.5547176 0.0057194857 0.42925882 0.13747309 -0.8656789 -0.38367403 0.47285253
-0.20689842 0.07455252 -0.4699833 -0.11357266 0.018037254 -0.4998107 0.10873378 -0.38943407
0.22978745 0.41679814 0.4162366 -0.20049815 0.18393987 0.32524502 0.5070443 -0.16060579
0.32985583 -0.62970537 0.1752001 -0.025729401 -0.13226569 0.69399226 -0.42676872 -0.16472745
-0.5395242 0.07468671 0.50903106 -0.068300806 -0.045936797 -0.75135064 0.2470509 0.07835587
0.29132295 0.12554356 -0.15293767 0.39065886 -0.028990382 0.22086108 -0.39487258 -0.12867992
0.5305001 -0.47173914 0.37531927 -0.15256289 -0.27873996 0.03731451 -0.5757947 0.46128455
0.38573134 -0.3996637 -0.52923024 0.032852966 -0.042911794 0.12758015 -0.09370188 0.5516759
0.48315147 0.4721606 -0.05062481 0.3473319
00000000: 1807 bf3e c325 963d 812c 49be fe4c de3e
00000010: 144f 03bd 28e7 983e 4a24 133e 5b4e 69be
00000020: 0032 a6be eae8 5cbe f353 be3e 3f50 42be
00000030: 46f2 153f d619 993e 2587 563e 7b2c 04be
00000040: 40ed 8dbd 7e91 bfbe 244f 163e 452f bbbe
00000050: bbbd 013f 2053 12be d848 86be d332 4fbd
00000060: 7a5e c2be a5b8 cfbe 25d4 14bf 75aa 3f3e
00000070: 9ffa 493e 492e c1be 1811 f9be 5882 b9be
00000080: e8a2 bbbe f901 0e3f 866a bb3b d0c7 db3e
00000090: bfc5 0c3e 229d 5dbf ec70 c4be ba19 f23e
000000a0: 2edd 53be feae 983d a7a1 f0be c898 e8bd
000000b0: ddc2 933c 30e7 ffbe d1af de3d e763 c7be
000000c0: 674d 6b3e 9166 d53e f71c d53e 634f 4dbe
000000d0: bc5a 3c3e 8486 a63e a8cd 013f d875 24be
000000e0: dde2 a83e 5f34 21bf a867 333e 77c6 d2bc
000000f0: a870 07be 7aa9 313f 6e81 dabe 50ae 28be
00000100: 421e 0abf 59f5 983d dc4f 023f 4be1 8bbd
00000110: 3928 3cbd 8458 40bf e9fa 7c3e 0b79 a03d
00000120: 4828 953e 7e8e 003e b19b 1cbe 7004 c83e
00000130: 3d7d edbc 6829 623e bd2c cabe abc4 03be
00000140: dbce 073f cb87 f1be d929 c03e 7239 1cbe
00000150: 01b7 8ebe 1ad7 183d 4867 13bf 7d2d ec3e
00000160: 947e c53e b8a0 ccbe a27b 07bf d590 063d
00000170: 47c4 2fbd 5fa4 023e c5e6 bfbd a23a 0d3f
00000180: a15f f73e 09bf f13e f65b 4fbd 7dd5 b13e

hidden2.weight f4 [50, 100]
0.047549684 -0.037690826 0.19527714 0.10987905 -0.012417375 -0.16314252 -0.060882814 0.0981812
-0.1184343 0.03761201 -0.05573164 -0.122701384 0.111681536 -0.21833424 -0.062307317 0.020176701
0.08965269 0.15403542 0.048235174 -0.19040489 0.104448624 -0.28198257 -0.05329319 0.04788775
-0.04498475 0.19004591 0.21969095 -0.018377438 -0.11433221 0.16090065 0.033392485 0.085178785
0.20236135 -0.13305682 -0.10631697 -0.032926638 0.019765837 -0.19510616 -0.2103548 -0.022275172
-0.0027344928 -0.1344668 -0.041300084 -0.2649638 -0.18398786 -0.32482436 -0.011307898 4.672346e-05
-0.06725493 0.09961689 0.008179304 0.27722463 0.12859292 0.0071555437 0.11608334 0.18741281
0.00896912 -0.1240596 -0.0008120768 0.18172336 -0.08716576 -0.122688495 -0.045206673 -0.15629376
-0.32424027 0.19415075 0.032610912 0.0019464919 0.13143496 -0.059012953 -0.027373953 0.045215476
0.061216712 0.11189497 0.19728461 0.09237615 -0.07633687 0.0048049735 -0.11948453 -0.036600273
-0.06800723 0.053591676 0.14132734 0.05462924 -0.08107698 -0.15229632 0.041536156 0.13728622
0.13754341 -0.16508017 -0.11001614 0.10755203 0.10319985 -0.081225984 0.15597717 -0.11972248
0.017002907 -0.006961984 -0.035564337 -0.038673006 0.09075016 -0.031855352 0.051873818 0.03784807
0.13821715 0.11387109 0.056398273 -0.019027272 0.081181094 0.23155013 0.046276618 -0.0047622155
-0.06540976 0.027969465 0.06825188 0.15320183 0.06359787 -0.031027513 0.07387153 -0.059139967
-0.06700467 0.04354749 0.080428936 -0.033804066 0.05426209 0.053828847 0.42602783 0.038682587
0.0038786042 0.15369742 -0.14857195 -0.08966187 -0.05850311 -0.01740253 -0.18576886 0.078530714
0.12335126 -0.15028593 0.010352956 -0.03351153 0.05423669 0.13279805 0.1588694 -0.03642704
0.12080833 -0.2857332 0.013002592 0.0211077 0.03332761 -0.0858463 0.08695847 0.04303564
0.0005956061 -0.06859982 0.0786483 0.059372973 0.08199136 -0.0344004 0.13981493 0.026792292
-0.1177584 0.010230367 -0.08065454 -0.04475636 -0.034272946 0.023771007 -0.041523337 0.008389026
0.015215595 -0.26949385 0.05038555 -0.0050830715 0.020168666 -0.055384163 0.15221587 0.04779388
0.023837361 0.012110202 0.0011816471 0.10436343 -0.009830602 0.03360859 0.07375422 -0.11157463
-0.12761351 -0.13371988 0.2997699 0.11536846 0.082306005 -0.17596345 -0.04197597 0.019711688
-0.08165597 0.067144066 0.009007503 0.16569334 0.06448604 -0.0021240418 0.00144739 0.038816538
0.05328632 -0.061036605 0.070889406 -0.07615648 0.10341226 0.061021 0.14357536 0.05696575
0.1132781 0.14394328 0.085836716 -0.13075662 0.06393142 -0.042993322 0.061639786 0.10081322
-0.03892443 0.03951876 0.12282249 -0.07940797 -0.046922155 0.07558615 0.016746543 0.06838683
-0.07788005 0.015224728 0.38277555 -0.037174 -0.05552871 0.16267458 -0.01757106 -0.033077333
0.07564428 -0.012313802 -0.0013506045 -0.021737086 0.15657365 -0.27991146 -0.107671455 -0.024937458
0.089704596 0.024651216 0.0391594 0.06521713 0.034214515 -0.19115081 0.07479267 0.051905233
-0.054634567 -0.03797362 -0.00054558297 0.19718127 -4.9081602e-05 0.056796502 0.06524619 -0.11986804
00000000: 75c3 423d b261 1abd bbf6 473e 4408 e13d
00000010: 3f72 4bbc d50e 27be 4260 79bd 3a13 c93d
00000020: af8d f2bd 0d0f 1a3d dc46 64bd dd4a fbbd
00000030: 4ab9 e43d 0393 5fbe f535 7fbd 9c49 a53c
00000040: d49b b73d 76bb 1d3e 3f92 453d 80f9 42be
00000050: 29e9 d53d 0560 90be f649 5abd f225 443d
00000060: ee41 38bd 659b 423e aaf6 603e 488c 96bc
00000070: 0127 eabd 24c3 243e 8fc6 083d 3772 ae3d
00000080: d037 4f3e 0c40 08be b6bc d9bd 15de 06bd
00000090: f7eb a13c e9c9 47be 4067 57be 6c7a b6bc
000000a0: 2d35 33bb aab1 09be 472a 29bd 56a9 87be
000000b0: 5067 3cbe 614f a6be c344 39bc eff8 4338
000000c0: f4bc 89bd f103 cc3d 7d02 063c 63f0 8d3e
000000d0: ddad 033e 0d79 ea3b 1abd ed3d 25e9 3f3e
000000e0: 37f3 123c f612 febd 8de1 54ba b015 3a3e
000000f0: f683 b2bd 1b44 fbbd a22a 39bd 790b 20be
00000100: d202 a6be 74cf 463e 0593 053d 6e21 ff3a
00000110: e396 063e 91b7 71bd 573f e0bc dd33 393d
00000120: 60be 7a3d 3129 e53d fa04 4a3e b52f bd3d
00000130: 8156 9cbd 0a73 9d3b 4eb4 f4bd 2bea 15bd
00000140: 6047 8bbd f282 5b3d 1db8 103e e9c2 5f3d
00000150: b00b a6bd 91f3 1bbe d121 2a3d c294 0c3e
00000160: 2ed8 0c3e c70a 29be 2450 e1bd 3d44 dc3d
00000170: 715a d33d cf59 a6bd 7bb8 1f3e 0f31 f5bd
00000180: ae49 8b3c 5b21 e4bb e9ab 11bd 9667 1ebd
00000190: 38db b93d c27a 02bd a479 543d 9406 1b3d
000001a0: cc88 0d3e 3f35 e93d e001 673d 15df 9bbc
000001b0: 4642 a63d 7a1b 6d3e 8d8c 3d3d 5c0c 9cbb
000001c0: 8df5 85bd 3820 e53c a4c7 8b3d f1e0 1c3e
000001d0: 9a3f 823d 692d febc f549 973d c03c 72bd
000001e0: bf39 89bd da5e 323d edb7 a43d 2276 0abd
000001f0: ed41 5e3d a37b 5c3d 5220 da3e a271 1e3d
00000200: 2e30 7e3b db62 1d3e 3f23 18be a4a0 b7bd
00000210: f5a0 6fbd c08f 8ebc 313a 3ebe b6d4 a03d
00000220: 969f fc3d 8ee4 19be 729f 293c 6343 09bd
00000230: 4b27 5e3d 36fc 073e a9ae 223e 8534 15bd
00000240: 5c6a f73d 9f4b 92be d308 553c 0eea ac3c
00000250: 8882 083d 2fd0 afbd 4817 b23d 2446 303d
00000260: 7322 1c3a 107e 8cbd 5c12 a13d 1331 733d
00000270: 16eb a73d 6fe7 0cbd a52b 0f3e 827b db3c
00000280: 512b f1bd 459d 273c 352e a5bd 7252 37bd
00000290: ca61 0cbd 6abb c23c 6014 2abd 2072 093c
000002a0: d54a 793c 19fb 89be 1461 4e3d e58f a6bb
000002b0: c238 a53c 81da 62bd 7ade 1b3e 84c3 433d
000002c0: 9246 c33c de69 463c 7fe1 9a3a 7ebc d53d
000002d0: 8910 21bc 29a9 093d 740c 973d 3d81 e4bd
000002e0: 1ead 02be dded 08be 717b 993e 4d46 ec3d
000002f0: 0d90 a83d c32f 34be ffee 2bbd 687a a13c
00000300: 3f3b a7bd d482 893d 3594 133c 84ab 293e
00000310: 4211 843d 8233 0bbb 59b6 bd3a 17fe 1e3d
00000320: c242 5a3d 8501 7abd 772e 913d eef7 9bbd
00000330: cfc9 d33d 28f1 793d 6b05 133e eb54 693d
00000340: 59fe e73d de65 133e 29cb af3d 10e5 05be
00000350: 7aee 823d c419 30bd 007a 7c3d 2977 ce3d
00000360: 396f 1fbd 6cde 213d 5c8a fb3d a5a0 a2bd
00000370: 7231 40bd e9cc 9a3d 0c30 893c 650e 8c3d
00000380: 937f 9fbd 2371 793c 28fb c33e c443 18bd
00000390: 1372 63bd 2a94 263e 2ff1 8fbc 197c 07bd
000003a0: 63eb 9a3d d4bf 49bc c406 b1ba f911 b2bc
000003b0: d854 203e 8e50 8fbe da82 dcbd a449 ccbc
000003c0: 0bb7 b73d 59f1 c93c 9b65 203d 8f90 853d
000003d0: 8524 0c3d 0abd 43be e62c 993d 959a 543d
000003e0: 7fc8 5fbd 3a8a 1bbd 7405 0fba e3e9 493e
000003f0: f8dc 4db8 73a3 683d cb9f 853d 607d f5bd

hidden2.bias f4 [50]
-0.057903927 0.08792852 0.062727176 -0.0047863126 0.12132473 -0.06644931 0.013183814 0.06874803
0.044507563 0.08857472 0.069599144 0.085073136 -0.05350441 0.06745963 0.093135454 -0.0071650045
0.003617208 0.04415972 0.1006983 -0.09263921 0.016026804 -0.018528035 -0.06084803 0.034173563
0.1115147 -0.048239272 0.100240946 0.048804685 0.07904174 0.07509102 -0.09697842 -0.06962416
-0.009731324 0.06463528 -0.054016184 -0.058442537 -0.01365785 -0.025433395 0.048059188 0.024726953
0.01567184 -0.04641464 0.09875355 0.06911385 -0.057248723 -0.060417928 -0.006863745 0.006614895
-0.13058749 0.04478302
00000000: ab2c 6dbd de13 b43d 1b77 803d 80d6 9cbb
00000010: 1a79 f83d 9316 88bd ec00 583c c4cb 8c3d
00000020: 904d 363d aa66 b53d ff89 8e3d d33a ae3d
00000030: 7127 5bbd 4628 8a3d cdbd be3d 6ac8 eabb
00000040: ae0e 6d3b d3e0 343d e93a ce3d a0b9 bdbd
00000050: a54a 833c 1bc8 97bc c93b 79bd 94f9 0b3d
00000060: d261 e43d 8b96 45bd 204b cd3d 6ce7 473d
00000070: a3e0 a13d 52c9 993d 9f9c c6bd 1d97 8ebd
00000080: 2270 1fbc 805f 843d 1340 5dbd 7161 6fbd
00000090: 2dc5 5fbc b259 d0bc b6d9 443d 2e90 ca3c
000000a0: 3b62 803c 471d 3ebd 4d3f ca3d 908b 8d3d
000000b0: a37d 6abd ca78 77bd 44e9 e0bb c3c1 d83b
000000c0: bab8 05be 666e 373d

output.weight f4 [2, 50]
-0.2754867 -0.0018440112 0.0489911 0.15407889 0.045505125 0.08884304 0.39073065 -0.09786755
0.11230221 0.05151784 0.0598869 -0.17327942 0.23588432 0.15361561 -0.074759014 -0.13191901
-0.10190608 -0.10778783 -0.08574551 -0.22770436 0.045566875 -0.03507712 0.08599479 -0.13484971
0.24392836 -0.29328078 -0.26501283 0.008547821 -0.051126875 -0.02368838 -0.13441119 -0.008647101
0.10850487 0.11740267 0.18779565 0.01005655 -0.100313954 0.21586317 0.037100006 0.3060078
-0.2907654 0.0018161024 0.07742814 -0.21367076 -0.063665316 0.13330172 0.19512704 0.103076786
-0.29870337 0.16758572 0.407759 0.15657988 0.21496709 0.20890133 -0.2071805 0.17911796
0.29991 -0.346652 -0.2673341 0.04560367 -0.42841956 0.19663033 0.13698271 -0.40459105
0.39362183 0.3365524 -0.10290454 0.30011693 0.5277984 -0.45746234 -0.36157525 -0.27755842
-0.24280518 -0.28462997 0.3874626 -0.40978676 -0.48009828 -0.33066317 0.2176087 -0.04237132
0.4087909 0.39416957 -0.34665358 0.37751377 -0.6142055 -0.67604446 0.5357969 -0.5751037
-0.3484867 -0.29957658 -0.50421697 0.5550409 -0.32269433 -0.438141 -0.067236684 -0.23127991
-0.1832114 0.45103922 -0.47123924 0.3752713
00000000: 980c 8dbe c0b2 f1ba e4aa 483d dbc6 1d3e
00000010: 9563 3a3d 57f3 b53d d90d c83e c86e c8bd
00000020: b3fe e53d 5f04 533d f74b 753d 2970 31be
00000030: a98b 713e 694d 1d3e 411b 99bd c715 07be
00000040: 23b4 d0bd debf dcbd 589b afbd 552b 69be
00000050: 55a4 3a3d 07ad 0fbd 091e b03d 0b16 0abe
00000060: 5bc8 793e e628 96be c3af 87be 290c 0c3c
00000070: 6a6a 51bd 220e c2bc 16a3 09be 92ac 0dbc
00000080: cd37 de3d d070 f03d 814d 403e 3ac4 243c
00000090: 6771 cdbd 3c0b 5d3e 2df6 173d 0ead 9c3e
000000a0: 34df 94be 490a ee3a a592 9e3d 82cc 5abe
000000b0: f662 82bd 3f80 083e 62cf 473e ec19 d33d
000000c0: a6ef 98be 979b 2b3e cac5 d03e 7a56 203e
000000d0: 5520 5c3e 3bea 553e 2027 54be b36a 373e
000000e0: ce8d 993e 5f7c b1be 04e0 88be eaca 3a3d
000000f0: cf59 dbbe 7659 493e 3245 0c3e 8f26 cfbe
00000100: cd88 c93e 9950 ac3e 9ebf d2bd eda8 993e
00000110: cc1d 073f 8138 eabe 6420 b9be 231c 8ebe
00000120: eca1 78be 05bb 91be 7f61 c63e 92cf d1be
00000130: 71cf f5be af4c a9be d1d4 5e3e 8d8d 2dbd
00000140: 0a4d d13e 98d0 c93e 947c b1be 7c49 c13e
00000150: 923c 1dbf 4011 2dbf fc29 093f ff39 13bf
00000160: d96c b2be 1a62 99be 5d14 01bf 2917 0e3f
00000170: 3138 a5be 0454 e0be 63b3 89bd a4d4 6cbe
00000180: c59b 3bbe 9dee e63e 4546 f1be 8f23 c03e

output.bias f4 [2]
-0.058352355 -0.03681162
00000000: e102 6fbd c8c7 16bd
